…
Training deep context adaptation on BirdVox-70k with PCEN input. 
Training set: unit07, unit10, unit01.
Validation set: unit02, unit03.
Test set: unit05.

h5py version: 2.6.0
keras version: 2.0.6
numpy version: 1.13.1
pandas version: 0.20.3
pescador version: 1.0.0
tensorflow version: 1.2.1

____________________________________________________________________________________________________
Layer (type)                     Output Shape          Param #     Connected to                     
====================================================================================================
spec_input (InputLayer)          (None, 128, 104, 1)   0                                            
____________________________________________________________________________________________________
spec_bn (BatchNormalization)     (None, 128, 104, 1)   4           spec_input[0][0]                 
____________________________________________________________________________________________________
spec_conv1 (Conv2D)              (None, 128, 104, 24)  624         spec_bn[0][0]                    
____________________________________________________________________________________________________
spec_pool1 (MaxPooling2D)        (None, 64, 52, 24)    0           spec_conv1[0][0]                 
____________________________________________________________________________________________________
spec_conv2 (Conv2D)              (None, 64, 52, 48)    28848       spec_pool1[0][0]                 
____________________________________________________________________________________________________
bg_input (InputLayer)            (None, 128, 9)        0                                            
____________________________________________________________________________________________________
spec_pool2 (MaxPooling2D)        (None, 32, 26, 48)    0           spec_conv2[0][0]                 
____________________________________________________________________________________________________
bg_pool (AveragePooling1D)       (None, 32, 9)         0           bg_input[0][0]                   
____________________________________________________________________________________________________
spec_conv3 (Conv2D)              (None, 32, 26, 48)    57648       spec_pool2[0][0]                 
____________________________________________________________________________________________________
bg_permute (Permute)             (None, 9, 32)         0           bg_pool[0][0]                    
____________________________________________________________________________________________________
spec_pool3 (MaxPooling2D)        (None, 16, 13, 48)    0           spec_conv3[0][0]                 
____________________________________________________________________________________________________
bg_conv (Conv1D)                 (None, 9, 8)          264         bg_permute[0][0]                 
____________________________________________________________________________________________________
spec_conv4 (Conv2D)              (None, 16, 13, 96)    115296      spec_pool3[0][0]                 
____________________________________________________________________________________________________
bg_flatten (Flatten)             (None, 72)            0           bg_conv[0][0]                    
____________________________________________________________________________________________________
spec_pool4 (MaxPooling2D)        (None, 8, 6, 96)      0           spec_conv4[0][0]                 
____________________________________________________________________________________________________
bg_experts (Dense)               (None, 8)             584         bg_flatten[0][0]                 
____________________________________________________________________________________________________
spec_reshape (Reshape)           (None, 576, 8)        0           spec_pool4[0][0]                 
____________________________________________________________________________________________________
bg_transposed (Reshape)          (None, 1, 8)          0           bg_experts[0][0]                 
____________________________________________________________________________________________________
multiply (Multiply)              (None, 576, 8)        0           spec_reshape[0][0]               
                                                                   bg_transposed[0][0]              
____________________________________________________________________________________________________
multiply_transposed (Permute)    (None, 8, 576)        0           multiply[0][0]                   
____________________________________________________________________________________________________
dense_across_experts (Dense)     (None, 8, 64)         36928       multiply_transposed[0][0]        
____________________________________________________________________________________________________
dense_across_experts_transposed  (None, 64, 8)         0           dense_across_experts[0][0]       
____________________________________________________________________________________________________
mixture_of_experts (Lambda)      (None, 64)            0           dense_across_experts_transposed[0
____________________________________________________________________________________________________
dropout (Dropout)                (None, 64)            0           mixture_of_experts[0][0]         
____________________________________________________________________________________________________
adaptive_threshold (Dense)       (None, 1)             72          bg_flatten[0][0]                 
____________________________________________________________________________________________________
concatenate_1 (Concatenate)      (None, 65)            0           dropout[0][0]                    
                                                                   adaptive_threshold[0][0]         
____________________________________________________________________________________________________
edf (Dense)                      (None, 1)             66          concatenate_1[0][0]              
====================================================================================================
Total params: 240,334
Trainable params: 240,332
Non-trainable params: 2
____________________________________________________________________________________________________
          acc      loss   val_acc  val_loss
0    0.512451  7.855506  0.509399  7.907547
…
